gpt-bitcoin/bitcoin_forecast_model.pth (torch, 8990 bytes, 5 tensors)

lstm.weight_ih_l0 f4 [64, 2]
000000 25 e4 43 3e 81 32 b8 bb 48 76 c4 be 99 ed 2e 3e
       0.19129999 -0.005621255 -0.3837149 0.17082824
000010 64 44 af 3e ab b0 80 bd 46 04 2b 3e f2 1c ba bd
       0.34231865 -0.06283697 0.16700849 -0.09087552
000020 ca 4e a1 3e 85 7e e3 bd e6 cd 5e 3d c5 1f 8d bc
       0.31505424 -0.11108116 0.05439558 -0.017227063
000030 b2 e0 ac 3e e8 68 83 3e fc 8f 31 3d e7 62 63 3d
       0.3376518 0.25665975 0.043350205 0.055514243
000040 c9 6d 0e 3e 07 34 3a 3e ff 10 ad 3d 2c 66 0a be
       0.13909067 0.1818391 0.084505074 -0.13515538
000050 c5 fe a5 3e 14 2f 57 bd be 38 5f 3e 22 f3 cc 3d
       0.32420936 -0.05253513 0.21798989 0.100073114
000060 e0 05 b9 ba f6 1b d4 3d 97 16 89 3d 35 74 84 bd
       -0.0014116131 0.103568956 0.06693762 -0.06467477
000070 94 94 a7 bd 5e b7 d4 bd 96 33 cb 3d 4f 43 44 3e
       -0.08182636 -0.10386537 0.099219486 0.19166301
000080 f0 34 e0 3c df 3f 44 bd 3f 63 75 bc d4 17 41 3e
       0.027368993 -0.047912475 -0.014977275 0.18856746
000090 0b c4 20 3e d7 e6 2b 3d 6c e4 7c be 7a ac 28 be
       0.15699784 0.041968193 -0.24696511 -0.16472045
0000a0 1a 4a 8f bc ed 2f 91 3d 54 b9 8b bd 23 e2 83 3d
       -0.017491389 0.07089219 -0.06822458 0.064396165
0000b0 aa 43 50 bd 41 b8 32 be da 6a d9 3a a3 ae 48 be
       -0.05084578 -0.174531 0.001658763 -0.19597869
0000c0 d8 db 30 3e 24 1a 7a be ac ff 0d 3e 1e d4 17 be
       0.17271364 -0.24424034 0.13867062 -0.1482701
0000d0 cd f1 f5 bd 0e 70 bd bd 19 99 af 3d 1d 42 44 be
       -0.120090105 -0.09249888 0.08574123 -0.19165845
0000e0 ad 4d 80 3d f0 2b 1a be e7 8a ce 3d d9 98 3f 3e
       0.062648155 -0.15055823 0.10085087 0.1871065
0000f0 f4 a3 b2 3d 5f 69 54 3d 7a fc 49 3e d3 d6 2c be
       0.08722678 0.051858302 0.19725218 -0.16878824
000100 38 5d 88 be e1 b8 6c 3d 0c 03 ca be 14 52 08 bd
       -0.2663362 0.0577935 -0.3945545 -0.0332814
000110 1b c4 90 bd 48 57 5a 3d 7d 6b fa 3d b3 88 37 be
       -0.07068654 0.053305894 0.12227533 -0.1792324
000120 d6 8a be bd 50 f1 ef bd b4 7f 27 3e dc ff 11 be
       -0.093038246 -0.117159486 0.16357309 -0.14257759
000130 43 6c 94 3e 6b 1d 53 3e d5 2f 2f 3e 77 7c 7b bc
       0.28988847 0.20616691 0.1710809 -0.015349499
000140 a8 86 0b be e7 65 59 bd 67 50 aa 3e 77 c8 0b 3d
       -0.13625586 -0.053075697 0.33264467 0.034126725
000150 3a ce 7f 3c 83 66 22 3e bd e8 03 3d 4f 6c ed bd
       0.015613133 0.15859418 0.03220438 -0.11592924
000160 70 a5 ac 3e 23 b9 9e 3d b4 1f a9 be 96 18 26 3e
       0.3371997 0.07750156 -0.33032 0.16220316
000170 cd e0 99 3e 93 5b e0 bd 71 00 6b 3e 99 82 1f 3e
       0.30054322 -0.109549664 0.22949387 0.15577163
000180 87 f9 db 3d a6 dc 7f bd ad 65 c0 be 12 9a 4f be
       0.10740953 -0.062466286 -0.37577572 -0.20273617
000190 bb 9d ce bd 25 7a b2 bd 4b c6 d5 bc c1 37 81 be
       -0.100886784 -0.087147035 -0.02609553 -0.2523785
0001a0 c9 14 ff 3d f9 c7 db 3d b6 3d da 3b fd 5e 6f bd
       0.12455136 0.10731501 0.0066601885 -0.058440197
0001b0 f6 7d 07 3e b1 c8 6b 3e 3c a0 be 3d e0 c7 72 3d
       0.13231644 0.23025776 0.09307906 0.059272647
0001c0 58 11 8e be 5e 6a 3f be 99 d2 3b 3c 73 7f fc 3c
       -0.27747607 -0.1869292 0.011463785 0.030822491
0001d0 8a 46 d6 bd 6d b8 55 3e 9e f5 da 3d 07 0a 26 3e
       -0.10462673 0.20871134 0.10691379 0.16214763
0001e0 72 ae 71 3e 2a 7d 0f be e9 99 b1 3e 60 da b5 bb
       0.23601702 -0.1401259 0.34687737 -0.005549714
0001f0 30 34 9c bd 52 ae 73 be 39 62 f9 bd 07 b8 46 3d
       -0.076271415 -0.23796967 -0.121769376 0.048515346

lstm.weight_hh_l0 f4 [64, 16]
000000 9b 5e 62 3e 06 c9 21 3e 48 80 59 bd 6e d2 cf bb
       0.22106402 0.1579934 -0.053100854 -0.006342224
000010 67 d8 dd bd 39 24 f4 3d df 21 cd 3d a7 ae f6 3d
       -0.10832291 0.119209714 0.10016226 0.12045031
000020 18 40 55 be 2b 40 28 be 97 67 6a 3d 75 b3 2a be
       -0.20825231 -0.16430728 0.057227697 -0.1667002
000030 91 53 15 3d a5 24 42 3e f6 c0 88 3e cd 30 30 be
       0.03645665 0.18959291 0.26709718 -0.17206116
000040 d9 fe 5d bd c8 3e 77 3e 85 fb e4 bd 19 9b 4e bd
       -0.05419812 0.24145043 -0.11180786 -0.05044088
000050 78 c6 14 3e fe ec 5a 3d ca 70 9d 3d 33 dc e6 bc
       0.14528835 0.05344867 0.076875284 -0.028181171
000060 35 14 a2 3e c9 83 f5 bd 49 9b 80 be 00 06 ad 3e
       0.31656042 -0.11988027 -0.25118473 0.3379364
000070 79 8a 12 3e 93 f2 6a 3d e7 30 1d 3e 7a b0 b8 3d
       0.14310636 0.057360243 0.15350686 0.09018035
000080 0d e0 e2 bd 2a 37 a7 be bf 79 e2 3d 4a d5 3d 3b
       -0.110778905 -0.32659274 0.110583775 0.0028966242
000090 06 7d 3e be 3e f7 9b bd 06 3c 16 be 83 56 8c bd
       -0.1860238 -0.07615517 -0.14671335 -0.06852438
0000a0 10 f1 f4 bd 6e cd fa 3d 80 45 4a bd b8 67 31 bd
       -0.119600415 0.12246214 -0.049382687 -0.043311805
0000b0 07 b1 98 bc a3 82 2d bd b8 d3 53 be 58 c1 46 3e
       -0.0186391 -0.042360913 -0.20686233 0.19409692
0000c0 8d 5a 04 be fa 2a 00 3e 0b 8d b6 bc 50 3f 75 be
       -0.12925167 0.12516394 -0.022284051 -0.23949933
0000d0 bf d4 3d be 10 7e 92 be f1 fa 8c be 9a fb 15 be
       -0.18538187 -0.28611803 -0.27535203 -0.1464676
0000e0 e0 a2 8b 3e 4c 58 bf 3c 0d c8 0c be 05 bc 3f 3e
       0.272727 0.023357533 -0.13748188 0.18724068
0000f0 23 ac 39 3d 7f d2 14 be 3f ec c6 3d 2e c1 de 3d
       0.045330178 -0.14533423 0.09713029 0.1087669
000100 e9 46 ec 3d 7a ef 37 3d 3b 4c e8 bd 07 88 bf bd
       0.115369625 0.044906117 -0.11342665 -0.09352117
000110 8e 7e 9f be 79 35 92 3e c8 aa 10 3e 62 f0 38 3e
       -0.3115124 0.2855642 0.14127648 0.18060449
000120 1e 74 ed 3c 06 4e c6 3b a5 c0 35 be ab 3f 23 be
       0.028986033 0.0060517816 -0.1774927 -0.15942256
000130 9e d0 29 3e 97 28 d4 bd 61 d5 55 3e b3 bb 91 3e
       0.16583487 -0.103593044 0.20882179 0.28463516
000140 3e ba 45 be 22 a5 45 be c4 5f 50 bb ea e0 91 bc
       -0.19309327 -0.19301274 -0.0031795362 -0.017807443
000150 df 62 3c bd 20 dc 3f be b1 cb 49 3e af e1 3f 3d
       -0.04599273 -0.18736315 0.19706608 0.046846088
000160 a7 61 26 3e f1 23 5a be c8 f3 06 3d db 3d 90 be
       0.16248189 -0.21302773 0.03294733 -0.28172192
000170 ad e5 a6 3d 98 34 78 3d dc 9d ca 3d b6 04 3c 3d
       0.08149276 0.060597032 0.098933905 0.04590293
000180 56 f7 6e bd 9d b9 91 bd 85 1c 40 be c7 76 52 be
       -0.058341347 -0.07115481 -0.1876088 -0.20553122
000190 4f 01 56 3c 78 2f 06 3d 6b 3c 80 3e 01 61 f9 3d
       0.013061835 0.032760113 0.25046095 0.12176705
0001a0 cb 02 9c be fc 0e 07 be a9 4b f2 bd 07 0a 29 be
       -0.3047088 -0.1318931 -0.11830837 -0.16507731
0001b0 9d 4e 2d bc fb 0b 27 3c ad ab 80 3e e4 e4 93 3e
       -0.010577825 0.010195727 0.25130978 0.28885567
0001c0 e5 18 04 be fe 10 19 3e b1 ed 29 3e 2c b5 77 be
       -0.12900122 0.14947888 0.16594578 -0.24190205
0001d0 d2 b2 1f 3e 55 60 18 be 26 da 88 bb 0d c1 b6 bd
       0.15595558 -0.14880498 -0.004176396 -0.0892354
0001e0 30 f0 9d 3d 48 6b b5 3d 22 e3 a4 3d f4 87 ca bd
       0.07711828 0.08858353 0.08051135 -0.09889212
0001f0 b3 79 70 3e 1d df 23 3e 38 28 29 bd cb 8e 87 3d
       0.23483925 0.1600308 -0.04129812 0.066190325
000200 53 5d 22 3e a5 61 8c 3c 1a 83 b3 bd 77 4f c8 bc
       0.15855913 0.017136404 -0.0876524 -0.024451954
000210 67 73 41 3d 64 26 92 bc 92 53 42 3e 24 69 00 be
       0.047229197 -0.017840572 0.18977192 -0.12540108
000220 36 4c e7 bd 71 2e d9 bd 4e ca 5c bd 42 4f 08 be
       -0.11293833 -0.10604561 -0.05390387 -0.13311484
000230 90 aa 94 bd d5 e6 88 3e 72 f6 0a 3e fc 71 56 3e
       -0.07259095 0.2673861 0.13570574 0.20941919
000240 1e 01 87 be 70 63 c9 3b cd 83 ad 3d bc 34 86 be
       -0.2636804 0.006145887 0.08472405 -0.26212108
000250 98 1f 87 be a0 31 2d 3e 5d 05 37 3e eb 58 16 3e
       -0.26391292 0.16913462 0.1787314 0.14682357
000260 c2 93 e8 bd 47 a1 03 3e 18 4b 84 be 66 01 b2 bb
       -0.113563076 0.12854491 -0.25838542 -0.0054322956
000270 ab 26 6a 3e 03 bd 6a bd 1b cb 0d be b8 7f 0b 3e
       0.22866313 -0.057309162 -0.1384701 0.1362294
000280 a9 27 38 bd 5e 8b 86 be f0 7e 9a ba 40 82 5a be
       -0.044959698 -0.26278204 -0.0011787098 -0.21338749
000290 5f c7 48 be 89 46 ac 3d d1 9e 26 be f3 14 8d bd
       -0.19607304 0.08411891 -0.16271521 -0.06888761
0002a0 e2 99 ac be 83 f1 18 be ba 63 a7 3d 33 63 54 3d
       -0.33711153 -0.1493588 0.08173318 0.051852416
0002b0 68 da a6 3d 87 cc 38 be 82 e0 5c 3e 7a 18 48 be
       0.081471264 -0.18046771 0.21570018 -0.19540587
0002c0 95 eb 96 3d 44 46 8c be ba c8 95 be 5e 6b 55 bd
       0.073691525 -0.27397358 -0.29254705 -0.052104346
0002d0 3e db 8c 3b 3d 50 99 bd 9c 0b 16 3e 7c b6 50 3e
       0.0042985966 -0.07486007 0.14652866 0.20382112
0002e0 7d ce a0 be 4e 74 25 bd 86 e1 c1 bd da 26 06 3c
       -0.31407538 -0.04039412 -0.09466843 0.008187974
0002f0 6b d5 d4 bd 69 25 39 be 89 ec 3d bd 87 80 50 3e
       -0.10392269 -0.18080677 -0.046368156 0.2036153
000300 f7 e3 73 3b 47 3f 17 3d e2 95 2e be 1b 96 58 3e
       0.0037214735 0.03692558 -0.17049363 0.2115101
000310 82 d9 99 be 77 bd 29 3e 14 fd 7f 3e 8b b6 32 bd
       -0.30048758 0.16576181 0.24998885 -0.043631118
000320 de ff b9 3d 31 b6 c9 3d 0a ed 81 bd 70 47 f4 bd
       0.09082006 0.098492034 -0.0634404 -0.11927688
000330 fb 07 22 3d 05 6f 2b 3e 02 32 a6 bd 18 b2 cb 3c
       0.039558392 0.1674157 -0.08115007 0.024865195
000340 58 77 0a 3e 7f c5 66 bd 12 07 51 be c1 3a 44 be
       0.13522089 -0.05634069 -0.20412853 -0.19163038
000350 ec 43 84 3d be 76 50 3c cf f6 68 bc 60 6b 7a 3e
       0.064582676 0.012723623 -0.014219 0.24455023
000360 81 ca 1d bd d0 3f f1 bd b0 c8 9b bd 2e bb 7f bd
       -0.0385232 -0.117797494 -0.076066375 -0.062434368
000370 cf f3 22 3e bd e1 18 3e b1 92 8c 3e 76 cc de 3d
       0.15913318 0.14929862 0.27455667 0.108788416
000380 6b 73 1b be e9 88 0a be 7e 83 85 3d 17 5e c7 3d
       -0.15180747 -0.1352879 0.06519221 0.09734743
000390 62 54 65 be 6e ad cf bd ad 70 bf 3d db fb 0c be
       -0.2239547 -0.10140501 0.09347663 -0.1376795
0003a0 48 32 89 be 90 6f 51 bb d4 1c 8e bd 85 21 38 bd
       -0.26796174 -0.0031957366 -0.06939092 -0.04495384
0003b0 83 ad 49 3e b0 bf 1d be 25 f5 ce 3c ae ca 56 3e
       0.19695096 -0.15405154 0.025263378 0.20975754
0003c0 30 e9 ee 3c 35 34 98 be ec 8e 05 be 42 11 f7 bd
       0.029163927 -0.2972733 -0.13042802 -0.120638385
0003d0 9b 71 1b be b6 2e 02 3e 4e 8b b7 bd 0b af 61 3e
       -0.15180056 0.12713131 -0.08962117 0.2203943
0003e0 01 b1 b8 3d 28 9b de bc 4c 72 b0 bd 6d a6 69 bd
       0.09018136 -0.027173594 -0.086155504 -0.05704348
0003f0 78 14 29 3e b2 19 8c be a5 dc 7e bd 5f 4e 8c 3e
       0.16511714 -0.27363354 -0.06222214 0.27403542

lstm.bias_ih_l0 f4 [64]
000000 4a 2b 3e 3d c9 22 df bc 1b 58 8b bd 76 92 0e be
       0.046428002 -0.027238267 -0.06803914 -0.13923058
000010 ce be 3c be da 36 70 bd 8a d1 d7 bd d7 56 5e 3e
       -0.18432161 -0.05864606 -0.10538013 0.21712814
000020 cc 6c b4 bd 31 96 f6 bd b8 d7 7b 3e 80 1d 47 be
       -0.08809814 -0.120403655 0.24594009 -0.19444847
000030 7b d3 1c 3d 5e 53 7f 3e 78 2b 0f 3e 5f 21 e4 3d
       0.03828762 0.24934146 0.13981426 0.111391775
000040 9d 38 83 3e 93 63 bd 3d cd 61 18 be f7 f1 d3 bc
       0.2562913 0.09247508 -0.14881058 -0.025872214
000050 26 5e 1c 3e b9 ec ed 3d 61 b4 73 3e cc fd 60 3e
       0.1527029 0.11617417 0.23799278 0.21971816
000060 07 4c 37 be 6c 1b 63 3d 8a 3c 88 3e aa d7 85 3e
       -0.17900096 0.055446073 0.26608688 0.261411
000070 81 4a 0b bc 48 08 8a 3e c1 6e 5c bd c4 87 f2 3d
       -0.00850165 0.26959443 -0.05381656 0.118423015
000080 33 66 2d be 34 7b c5 3d 18 29 6f be a7 dd 5d be
       -0.16933517 0.0964264 -0.2335552 -0.21666585
000090 f7 42 43 bd c1 b2 07 3e ef 95 c6 bd a9 dd e9 bd
       -0.047671285 0.13251783 -0.09696566 -0.114192314
0000a0 0d b1 7c 3e d7 24 3d 3d 84 4f 36 be 64 24 91 3e
       0.24676915 0.04617771 -0.1780377 0.28348076
0000b0 8b 5b 17 3e 19 4c 37 be ce 05 0f be 44 ae 80 3e
       0.14781015 -0.17900123 -0.13967058 0.25132954
0000c0 63 5b 75 3d ae c4 c1 bd 04 b8 c2 bd 02 90 b8 bd
       0.059901606 -0.09461342 -0.095077544 -0.09011842
0000d0 52 b1 06 be eb fe 58 3d 9a 13 65 3e d5 46 66 bd
       -0.1315358 0.052977484 0.22370759 -0.056219894
0000e0 95 d2 99 bc 98 00 af 3e 7f 4f de bc a6 2e ef bd
       -0.018777171 0.3418014 -0.027137516 -0.11678819
0000f0 37 09 5b 3e d5 1c 53 bc 42 0e 18 3e 00 c8 63 bc
       0.21390234 -0.012885292 0.14849189 -0.013902664

lstm.bias_hh_l0 f4 [64]
000000 36 5d 38 be 2c 1a 65 bd ae e5 23 be 7c 4a f6 3d
       -0.18004307 -0.055933163 -0.16005585 0.120259255
000010 48 24 0b 3e 08 f8 59 be e4 9c cc 3d 1d 19 ad 3b
       0.13588059 -0.21286023 0.09990862 0.0052825348
000020 80 61 a5 3d 03 a7 00 3e 7f 68 12 3e 20 7e 35 3e
       0.08075237 0.1256371 0.14297675 0.17723894
000030 f3 75 25 bc 35 33 8c 3e 89 27 e5 bc 8b 33 15 be
       -0.010098922 0.27382818 -0.027972953 -0.14570443
000040 01 7b 5e be f7 e1 b4 3b 7b a2 05 bd c5 08 05 3e
       -0.2172661 0.005520101 -0.032625657 0.12991627
000050 af d7 b7 bd b5 d4 ec bd a0 e1 a2 3e be 17 57 3e
       -0.08976685 -0.11564008 0.31812763 0.2100515
000060 c1 3e 8f be 3a 16 5d bd 85 75 57 bd c4 53 1d be
       -0.27977565 -0.053976275 -0.05260231 -0.15363985
000070 ca 37 4c bd ba fd 3f 3e 69 51 96 3e 40 fe 24 be
       -0.049857892 0.18749133 0.29358986 -0.16112614
000080 fd 83 f0 3b 24 0f 07 3d 43 c6 a6 bd c6 a6 c0 3d
       0.007339953 0.032973424 -0.08143284 0.094068095
000090 ed 15 b0 bd dd a7 8b be a3 13 69 3c 34 41 a5 3c
       -0.08597932 -0.27276507 0.014225873 0.020172693
0000a0 94 93 20 be 94 1a c9 bd e1 e2 ac bd 6b 1d be 3d
       -0.15681297 -0.098195225 -0.08441711 0.09282955
0000b0 3f c7 51 3e 51 b0 e9 3d 4b 5b 0f 3d 00 2c 2e be
       0.20486163 0.11410583 0.034999173 -0.17008972
0000c0 49 47 59 be ce 85 f0 3d 98 79 62 be fe 35 19 be
       -0.212186 0.11744271 -0.22116697 -0.14962003
0000d0 43 17 95 3e 86 58 0b 3d 04 8a 47 3e 32 4a b0 bd
       0.2911931 0.03401997 0.19486243 -0.08607902
0000e0 c3 9f d2 bb 8d b8 f5 3d 63 49 ed bc 85 2c 58 3d
       -0.0064277365 0.11998091 -0.028965658 0.052776832
0000f0 c0 8f 27 bd 94 4e 16 be 3c 3e 79 3e bd 22 b6 3d
       -0.040908575 -0.14678413 0.24340147 0.088933446

fc.weight f4 [1, 16]
000000 4b a5 bd bc 15 b8 e1 bd 2e d0 a0 bb da 8b 6c 3e
       -0.023150107 -0.11021439 -0.0049076295 0.23100224
000010 57 e8 76 be 90 d9 32 bd 91 b7 3c 3e 50 39 5d 3d
       -0.24112068 -0.043664515 0.184294 0.054009736
000020 82 ab 20 3e 4e c5 58 3e f9 9b 72 be 2d 1c 1c 3e
       0.15690425 0.21169016 -0.23692311 0.15245123
000030 8d af 44 3e 6a e6 3c be 9b 39 aa 3e e1 cc 1a 3e
       0.19207592 -0.18447271 0.33247074 0.15117218
